…
Adding max_pool (MaxPooling).
Adding reorder (Reorder).
Adding data_3 (Data).
Adding mat_mul (InnerProduct).
Adding data_4 (Data).
Adding mat_mul_1 (InnerProduct).
======================================================
      Summary of the network.
======================================================
____________________________________________________________________________________________
Layer (type)                             Output shape                 Parameters  
____________________________________________________________________________________________
data_4 (Data)                            (10, 128)                        0       
____________________________________________________________________________________________
data_3 (Data)                            (128, 4608)                      0       
____________________________________________________________________________________________
data_2 (Data)                            (32, 3, 3, 32)                   0       
____________________________________________________________________________________________
data_1 (Data)                            (32, 3, 3, 1)                    0       
____________________________________________________________________________________________
data (Data)                              (1, 28, 28, 1)                   0       
____________________________________________________________________________________________
conv (Convolution3d)                     (1, 26, 26, 32)                 288      
____________________________________________________________________________________________
conv_1 (Convolution3d)                   (1, 24, 24, 32)                 9216     
____________________________________________________________________________________________
max_pool (MaxPooling)                    (1, 12, 12, 32)                  0       
____________________________________________________________________________________________
reorder (Reorder)                        (1, 4608)                        0       
____________________________________________________________________________________________
mat_mul (InnerProduct)                   (1, 128)                       589824    
____________________________________________________________________________________________
mat_mul_1 (InnerProduct)                 (1, 10)                         1280     
____________________________________________________________________________________________
======================================================
      Tiling operators of the network...
======================================================
Tiling conv (Convolution3d).
Tiling conv_1 (Convolution3d).
Tiling data (Data).
Tiling data_1 (Data).
Tiling data_2 (Data).
Tiling data_3 (Data).
Tiling data_4 (Data).
…
