…
Adding data_2 (Data).
Adding mat_mul_1 (InnerProduct).
Adding data_3 (Data).
Adding mat_mul_2 (InnerProduct).
Adding data_4 (Data).
Adding mat_mul_3 (InnerProduct).
======================================================
      Summary of the network.
======================================================
____________________________________________________________________________________________
Layer (type)                             Output shape                 Parameters  
____________________________________________________________________________________________
data_4 (Data)                            (10, 256)                        0       
____________________________________________________________________________________________
data_3 (Data)                            (256, 256)                       0       
____________________________________________________________________________________________
data_2 (Data)                            (256, 256)                       0       
____________________________________________________________________________________________
data_1 (Data)                            (256, 784)                       0       
____________________________________________________________________________________________
data (Data)                              (1, 28, 28, 1)                   0       
____________________________________________________________________________________________
reorder (Reorder)                        (1, 784)                         0       
____________________________________________________________________________________________
mat_mul (InnerProduct)                   (1, 256)                       200704    
____________________________________________________________________________________________
mat_mul_1 (InnerProduct)                 (1, 256)                       65536     
____________________________________________________________________________________________
mat_mul_2 (InnerProduct)                 (1, 256)                       65536     
____________________________________________________________________________________________
mat_mul_3 (InnerProduct)                 (1, 10)                         2560     
____________________________________________________________________________________________
======================================================
      Tiling operators of the network...
======================================================
Tiling data (Data).
Tiling data_1 (Data).
Tiling data_2 (Data).
Tiling data_3 (Data).
Tiling data_4 (Data).
Tiling mat_mul (InnerProduct).
Tiling mat_mul_1 (InnerProduct).
…
